model/base_model.pth (torch, 526376 bytes, 4 tensors)

lstm.weight_ih_l0 f4 [512, 126]
0.056753404 -0.007502102 0.045821346 -0.06602565 -0.026415465 0.008562689 0.0742896 0.0037491377
-0.12677002 0.08134044 -0.002552074 0.014503371 -0.054392915 -0.09278421 0.044466317 -0.07633709
0.044190023 -0.12181314 -0.022027928 -0.10961789 0.008184608 -0.019110618 -0.08872999 -0.05420026
0.025235383 -0.078910746 -0.059924275 -0.00057788653 -0.07109631 -0.13307257 -0.039642673 -0.098006964
-0.004211608 -0.021595286 -0.10032652 0.057666235 0.0259372 0.05289487 -0.017060606 -0.05259325
0.00049010507 -0.06423571 -0.014089455 -0.097834796 0.03739837 -0.050092805 0.005750143 -0.076355144
0.09043388 0.05870368 0.011270172 0.0856024 0.049152438 -0.03185023 0.0025803607 -0.02431724
-0.047055017 0.11396242 -0.05679829 0.056434043 -0.021601805 -0.05964362 0.044931594 0.079134695
0.014372952 -0.06053693 -0.08516757 0.014985497 -0.10464495 0.03550661 0.071209356 -0.03352165
-0.096930824 -0.023843097 0.03007935 -0.0096034035 0.099231444 0.026973512 -0.05839711 0.051735416
0.031426445 0.017878518 0.006692293 -0.0406053 0.0040283296 0.035510715 0.0747218 -0.04735515
0.043243207 -0.05773306 -0.027677855 -0.011809772 0.05414672 0.047681488 -0.0061065187 0.07694648
0.06170084 0.07779527 0.001586064 0.01682406 0.13070184 0.07256873 -0.01760939 0.062127188
0.00748957 -0.0046827323 -0.07493048 0.05676956 0.0010234333 0.08700521 -0.021822441 -0.0018836111
-0.011490193 -0.014572911 0.08301744 0.06286774 -0.048779566 0.056523617 0.047705173 0.022054551
-0.015276606 -0.005449743 -0.09912998 0.028667772 0.1259351 -0.065053016 -0.0013366538 -0.006664553
0.022647083 -0.08641084 0.038545 0.054803252 0.0011718121 0.040106468 0.086909294 -0.06973767
0.011061938 -0.028758466 -0.05690656 0.008259413 -0.023262763 0.03739532 -0.027327135 -0.06557727
-0.05784033 0.0029810637 0.087825514 -0.08361504 -0.033935312 0.049977023 0.026458647 -0.09370293
-0.04802336 0.0042263004 -0.08411069 0.015118141 -0.009297643 0.016784096 0.050302655 0.05458514
0.010016819 0.034468334 -0.031148056 -0.089956075 -0.040440846 -0.060279578 0.0053425375 -0.09694883
-0.030400185 -0.016693002 0.02338437 0.028770963 -0.057814766 -0.044720452 -0.0004004406 -0.073805705
0.054461204 0.06321052 -0.066723794 -0.09568017 0.048908927 -0.054506958 -0.021371325 -0.09137671
-0.09788834 -0.05326366 0.028896796 -0.07068632 0.028974595 -0.025748463 0.06113015 -0.011588179
-0.13803177 -0.029353121 0.040377136 0.017453615 -0.019455923 0.06035825 0.019406438 0.046092242
0.07957061 0.032043446 0.05117159 -0.054762 0.0016578705 0.043246407 -0.079058506 -0.06360079
-0.06654444 -0.11369447 -0.06206362 -0.039410062 0.00045549808 -0.064261526 0.016701035 -0.05990853
-0.07457141 -0.01195451 -0.09050787 0.029509202 0.09734852 -0.02728862 -0.09528303 -0.0015973416
-0.10270881 -0.12057097 0.059782267 -0.09895667 0.008808156 0.011441438 -0.13134195 0.00889439
-0.03366964 -0.16831271 0.032350417 -0.028035596 -0.042102072 -0.07972171 0.044348147 -0.07819478
0.012659776 -0.026565 -0.09212283 -0.021185432 0.09915523 -0.14624499 0.06320834 0.043695338
-0.08631574 -0.06986527 0.029157646 -0.1033359 0.025954334 0.011320136 -0.06739203 -0.046584785
00000000: 4276 683d 31d4 f5bb 2aaf 3b3d 7538 87bd
00000010: 3f65 d8bc 854a 0c3c 2525 983d 18b4 753b
00000020: 00d0 01be d195 a63d b240 27bb 8c9f 6d3c
00000030: 1bcb 5ebd a605 bebd 5022 363d 9f56 9cbd
00000040: 9900 353d 2b79 f9bd ea73 b4bc 587f e0bd
00000050: bc18 063c df8d 9cbc 12b8 b5bd 1801 5ebd
00000060: 6fba ce3c f59b a1bd 2873 75bd 4f7d 17ba
00000070: f19a 91bd 2d44 08be 5b60 22bd e0b7 c8bd
00000080: 8701 8abb 99e8 b0bc fe77 cdbd 6e33 6c3d
00000090: 407a d43c 4ba8 583d afc2 8bbc 056c 57bd
000000a0: 657a 003a 038e 83bd 75d7 66bc 9c5d c8bd
000000b0: 092f 193d 1d2e 4dbd b26b bc3b 1660 9cbd
000000c0: 6635 b93d 4573 703d 87a6 383c 5050 af3d
000000d0: 1154 493d 6375 02bd 451b 293b f334 c7bc
000000e0: c3bc 40bd 2165 e93d 53a5 68bd 6227 673d
000000f0: 45f6 b0bc de4c 74bd 310a 383d 5f11 a23d
00000100: 887c 6b3c 92f5 77bd 566c aebd bb85 753c
00000110: 1750 d6bd 616f 113d 36d6 913d ff4d 09bd
00000120: ab83 c6bd 9952 c3bc f868 f63c 9857 1dbc
00000130: db39 cb3d 8ef7 dc3c cf31 6fbd 84e8 533d
00000140: 04b9 003d f875 923c 064b db3b be51 26bd
00000150: 1400 843b af73 113d be07 993d 79f7 41bd
00000160: ca1f 313d 8079 6cbd abbc e2bc c67d 41bc
00000170: f3c8 5d3d aa4d 433d 3119 c8bb 1e96 9d3d
00000180: 05ba 7c3d 2053 9f3d 7ae3 cf3a 9cd2 893c
00000190: b4d6 053e ea9e 943d 9141 90bc 1479 7e3d
000001a0: 116b f53b 9b71 99bb 2775 99bd 3387 683d
000001b0: b924 863a ca2f b23d fac4 b2bc 80e3 f6ba
000001c0: 5d41 3cbc 38c3 6ebc 0c05 aa3d cdc0 803d
000001d0: 15cd 47bd 4f85 673d 8066 433d bfab b43c
000001e0: bb4a 7abc c293 b2bb a904 cbbd add8 ea3c
000001f0: 21f5 003e 843a 85bd a932 afba 5362 dabb
00000200: 6086 b93c 2bf8 b0bd 5de1 1d3d 6079 603d
00000210: 7d97 993a ae46 243d 80fd b13d a0d2 8ebd
00000220: 213d 353c e096 ebbc da16 69bd 7d52 073c
00000230: 8d91 bebc d62b 193d 28dd dfbc 604d 86bd
00000240: fbe9 6cbd f35d 433b dddd b33d 5d3e abbd
00000250: c1ff 0abd b5b4 4c3d cebf d83c 52e7 bfbd
00000260: 25b4 44bd c77c 8a3b 3a42 acbd 14b2 773c
00000270: 2455 18bc cd7e 893c 280a 4e3d ab94 5f3d
00000280: 961d 243c ab2e 0d3d 352a ffbc e43a b8bd
00000290: 4da5 25bd b8e7 76bd 7410 af3b 1c8d c6bd
000002a0: cf09 f9bc c3bf 88bc 9490 bf3c 15b1 eb3c
000002b0: 2dcf 6cbd cb2c 37bd 3af2 d1b9 7227 97bd
000002c0: b612 5f3d 8474 813d 7ca6 88bd f7f3 c3bd
000002d0: ba54 483d b042 5fbd eb12 afbc b623 bbbd
000002e0: af79 c8bd ff2a 5abd f9b8 ec3c fdc3 90bd
000002f0: 215c ed3c 71ee d2bc 9c63 7a3d 58dc 3dbc
00000300: 3358 0dbe f575 f0bc 7f62 253d e2fa 8e3c
00000310: 0762 9fbc 363a 773d 40fa 9e3c 38cb 3c3d
00000320: eaf5 a23d fd3f 033d 4d99 513d 1e4e 60bd
00000330: e74c d93a 2523 313d 6de9 a1bd 2241 82bd
00000340: 7448 88bd a5d8 e8bd 6c36 7ebd 726c 21bd
00000350: ebcf ee39 8c9b 83bd 9cd0 883c a662 75bd
00000360: e5b8 98bd d9dc 43bc 315c b9bd 48bd f13c
00000370: a95e c73d 628c dfbc c023 c3bd e45d d1ba
00000380: ff58 d2bd eaed f6bd 40de 743d cba9 cabd
00000390: 1550 103c df74 3b3c 817e 06be c7b9 113c
000003a0: 2de9 09bd 2b5a 2cbe df81 043d e8aa e5bc
000003b0: 3973 2cbd 2345 a3bd 67a6 353d 9624 a0bd
000003c0: f36a 4f3c d89e d9bc e5aa bcbd 128d adbc
000003d0: e611 cb3d 3fc1 15be 6073 813d e2f9 323d
000003e0: 4fc6 b0bd 8615 8fbd 04dc ee3c c6a1 d3bd
000003f0: 2f9e d43c 1778 393c d504 8abd b0cf 3ebd

lstm.weight_hh_l0 f4 [512, 128]
0.06340549 0.12853836 0.13422064 0.04858375 0.1393607 -0.1153204 -0.019212792 0.08999814
-0.044782747 0.06384999 0.018774299 0.048170384 0.03322623 -0.095730625 -0.09163037 0.11635362
0.048809174 -0.010414284 0.18042569 -0.09569016 0.013446178 -0.015369004 -0.022820745 0.022761408
0.105719976 -0.0034928622 -0.15503158 -0.03635773 0.03761557 -0.1442692 -0.07322305 0.043789346
0.102342606 -0.054727226 0.11700398 -0.078838356 -0.048601747 0.08587624 -0.10330883 -0.122197166
0.072560616 -0.0662126 -0.04385143 0.07153777 0.13309109 -0.045183185 0.10234534 -0.13519432
-0.05055679 -0.016040958 -0.019515235 0.083784446 -0.073923856 0.14794861 -0.023563676 0.060791194
0.04637504 0.016218612 -0.004123031 0.008960428 -0.122723676 -0.10764074 0.021968013 -0.024305291
-0.050197616 -0.1439751 -0.110944785 -0.06387178 -0.023738962 -0.0919524 0.11931077 0.01931286
0.014651447 -0.101668745 -0.10809252 -0.07228125 0.006644181 -0.049097396 0.12783529 0.062998615
-0.12219129 -0.006420843 -0.06444457 0.1854013 -0.012461818 -0.070209235 -0.009104812 0.01812416
0.10897012 0.0585669 0.028420469 -0.009699258 -0.023572303 -0.027515078 -0.0068514165 -0.07468565
-0.038493086 -0.03554024 -0.015107447 0.02476254 0.051059127 -0.0044690175 0.01934083 -0.023288824
0.14097072 -0.052849986 -0.07292609 0.1516102 -0.040237065 -0.07800989 -0.037810825 0.1449829
-0.09816412 -0.042451058 0.015525285 0.09468929 0.018958012 0.088017955 -0.07569585 0.019533537
0.04143251 0.009443973 -0.11366955 -0.029865513 -0.0672317 0.0375493 -0.051037475 0.09436611
-0.028304495 0.09489364 0.037510723 0.11502092 -0.00800017 -0.02545276 -0.093399696 0.02670483
-0.015210775 0.10305093 -0.01699096 0.03007608 0.010028128 0.0048262523 -0.07198631 0.0043923706
0.05001955 0.05399044 -0.06557346 -0.05567322 0.035582405 -0.039262846 -0.058449466 0.020331284
0.05833644 0.037384007 0.023849338 -0.02484076 -0.117259085 -0.12458505 -0.03593877 0.05530839
0.0054570255 -0.064422175 0.058773536 -0.11472384 -0.01928629 0.050531283 0.014754821 0.066162184
0.0283335 -0.07601657 -0.12575358 -0.04245681 0.091352485 0.09527287 0.07478597 -0.112808004
-0.00985987 -0.03475082 0.0007089588 -0.03250213 -0.045073923 -0.04427456 -0.018390672 -0.07267826
-0.041405693 -0.009629004 -0.009585759 0.061888717 -0.086708486 -0.12430766 -0.06258869 -0.038248476
-0.01830901 -0.030095663 -0.03925889 0.015195261 -0.051441394 -0.11745934 -0.09106955 -0.019399872
-0.025818663 -0.06858966 0.047444124 -0.003931995 -0.035803247 0.03735942 0.05968159 0.13581586
-0.09952688 0.042748805 -0.02121263 0.06625093 -0.072400875 -0.034500334 0.021238176 0.07423693
0.032774497 0.033262588 0.07132371 -0.025738327 0.039524496 0.008979701 -0.1300552 0.085670084
0.037364308 -0.033596277 -0.05674997 0.08593997 0.09860308 -0.051871385 -0.041097123 -0.10304535
0.026747908 -0.035740845 -0.014881751 0.09190066 -0.1487258 -0.0120801795 -0.088747874 -0.07856253
-0.009166273 -0.051102884 0.01831167 0.1112697 0.08867606 -0.03252991 0.027656753 0.035083678
0.12601463 -0.012816679 0.09002484 0.04208991 0.0054890183 -0.0362892 0.022232609 -0.034553565
00000000: bdda 813d 8f9f 033e 2371 093e c1ff 463d
00000010: 92b4 0e3e 1a2d ecbd 2564 9dbc f250 b83d
00000020: 1d6e 37bd c9c3 823d 8fcc 993c 4f4e 453d
00000030: 3a18 083d 6b0e c4bd b4a8 bbbd cf4a ee3d
00000040: 21ec 473d aca0 2abc 83c1 383e 34f9 c3bd
00000050: 5c4d 5c3c 46ce 7bbc 92f2 babc 2276 ba3c
00000060: b783 d83d 81e8 64bb 99c0 1ebe d8eb 14bd
00000070: c912 1a3d 4ebb 13be f7f5 95bd 755c 333d
00000080: 0099 d13d a829 60bd c89f ef3d 0176 a1bd
00000090: a012 47bd e2df af3d 9493 d3bd 8242 fabd
000000a0: a99a 943d 799a 87bd 8f9d 33bd 6582 923d
000000b0: 0849 083e 0112 39bd 6f9a d13d 6170 0abe
000000c0: a314 4fbd 5468 83bc 6ade 9fbc 2e97 ab3d
000000d0: 6465 97bd d77f 173e 9c08 c1bc 3000 793d
000000e0: c1f3 3d3d e5dc 843c 7e1a 87bb c2ce 123c
000000f0: 8d56 fbbd c072 dcbd 43f6 b33c e41b c7bc
00000100: 049c 4dbd 356e 13be 0537 e3bd 35cf 82bd
00000110: 3678 c2bc 8a51 bcbd 3459 f43d 0136 9e3c
00000120: 9f0c 703c b437 d0bd 9c5f ddbd 3108 94bd
00000130: 6eb7 d93b 5a1a 49bd 41e7 023e 6b05 813d
00000140: 6d3f fabd ef65 d2bb 84fb 83bd d7d9 3d3e
00000150: a72c 4cbc dcc9 8fbd 592c 15bc 1e79 943c
00000160: ba2b df3d d9e3 6f3d 0bd2 e83c a3e9 1ebc
00000170: b41a c1bc 4d67 e1bc d981 e0bb caf4 98bd
00000180: edaa 1dbd a592 11bd 3a85 77bc cfda ca3c
00000190: 6023 513d d670 92bb a970 9e3c 34c8 bebc
000001a0: a15a 103e 3a79 58bd 465a 95bd b43f 1b3e
000001b0: 9fcf 24bd a6c3 9fbd 86df 1abd 6676 143e
000001c0: 450a c9bd 29e1 2dbd c45d 7e3c 75ec c13d
000001d0: d54d 9b3c c242 b43d 6d06 9bbd cc04 a03c
000001e0: 23b5 293d e5ba 1a3c 95cb e8bd 85a8 f4bc
000001f0: c6b0 89bd 4bcd 193d ac0c 51bd 0543 c13d
00000200: d4de e7bc 9957 c23d d8a4 193d 1790 eb3d
00000210: 2513 03bc 4e82 d0bc 5748 bfbd 16c4 da3c
00000220: 9d36 79bc 5e0c d33d a030 8bbc 1c62 f63c
00000230: 044d 243c 8a25 9e3b 8f6d 93bd e0ed 8f3b
00000240: 4de1 4c3d 1425 5d3d 614b 86bd 9a09 64bd
00000250: dbbe 113d 14d2 20bd b568 6fbd cb8d a63c
00000260: 31f2 6e3d f91f 193d b05f c33c d97e cbbc
00000270: 8825 f0bd 7226 ffbd 8834 13bd 0d8b 623d
00000280: d9d0 b23b c6ef 83bd 85bc 703d 55f4 eabd
00000290: 48fe 9dbc e4f9 4e3d 34be 713c 0a80 873d
000002a0: a81b e83c 93ae 9bbd 8cc5 00be 31e7 2dbd
000002b0: 0317 bb3d 6c1e c33d 6329 993d e207 e7bd
000002c0: 4b8b 21bc e056 0ebd 6bd9 393a f420 05bd
000002d0: 6f9f 38bd 3e59 35bd 09a8 96bc 57d8 94bd
000002e0: 0499 29bd f8c2 1dbc 960d 1dbc 067f 7d3d
000002f0: 3894 b1bd 0495 febd 802e 80bd 6faa 1cbd
00000300: c7fc 95bc 2e8b f6bc eecd 20bd 8bf5 783c
00000310: 36b4 52bd 868e f0bd ac82 babd 7bec 9ebc
00000320: a981 d3bc bc78 8cbd c554 423d f7d7 80bb
00000330: 6da6 12bd 3106 193d af74 743d 5013 0b3e
00000340: c0d4 cbbd 5f19 2f3d 1cc6 adbc 91ae 873d
00000350: e946 94bd 3950 0dbd affb ad3c 8809 983d
00000360: 8d3e 063d 5a3e 083d 2a12 923d 2fd9 d2bc
00000370: 70e4 213d 991f 133c 312d 05be cc73 af3d
00000380: 510b 193d 409c 09bd a872 68bd 4c01 b03d
00000390: 69f0 c93d 1777 54bd 7555 28bd 7109 d3bd
000003a0: 6e1e db3c fe64 12bd 96d2 73bc 6a36 bc3d
000003b0: 934b 18be f2eb 45bc 72c1 b5bd 64e5 a0bd
000003c0: 232e 16bc 4251 51bd 5b02 963c 5ee1 e33d
000003d0: cb9b b53d 153e 05bd 6a90 e23c e7b3 0f3d
000003e0: fb09 013e 0cfd 51bc f15e b83d 7866 2c3d
000003f0: 39dd b33b fca3 14bd 2921 b63c 0a88 0dbd

lstm.bias_ih_l0 f4 [512]
0.011509925 0.021667363 0.03606871 -0.018210635 0.03532301 0.06766979 0.0698788 0.040015243
0.02047951 -0.00796993 -0.02044483 0.017506253 -0.023767479 -0.029352756 -0.02733838 0.044400077
-0.010911763 0.03138531 0.00066590955 0.07008786 0.15516083 0.045450415 0.09500376 0.016991043
-0.09443356 -0.016179983 0.14674091 -0.0064024925 0.0748456 -0.02534263 0.0563472 -0.05302929
-0.042523652 -0.055063367 -0.05250798 -0.015569389 0.055943817 0.04923163 0.047131155 0.07728933
-0.039464742 0.018629208 -0.09177853 0.08813536 -0.023057414 0.058352046 0.07257652 -0.03919449
0.020589286 0.028782701 0.0203083 -0.035833173 -0.052432645 -0.06669411 0.067919984 0.032146167
0.099907085 0.10190612 -0.09302349 -0.005879102 0.04456826 0.042255353 0.031012854 -0.058677096
-0.010727842 0.04996379 0.008083255 -0.018483097 0.15684783 0.17616543 0.07839276 0.05517668
-0.012852516 0.031150013 0.07135883 0.02858478 0.0011346487 0.050451554 0.1418518 -0.04920253
-0.078998856 -0.02181032 -0.046798345 0.10465824 0.05676275 0.0149771515 0.07152482 0.029084502
0.0012791473 -0.00081671326 0.08318826 0.03672989 0.06542058 -0.072445475 0.026300844 0.018701375
-0.0009642318 0.05422747 0.1508851 -0.049285743 -0.05657474 0.12416074 0.115979314 0.107136905
0.0020472673 -0.016490636 0.040352166 -0.048349228 0.06560209 0.008270813 0.07057367 0.082028024
0.032581933 -0.030096766 0.034800127 -0.015232913 0.07640874 0.10207412 0.051399086 0.09206873
-0.0028777705 -0.013195123 0.04188532 0.063164815 0.11900963 0.0119853215 0.16779155 0.044710908
0.07357072 0.10605381 0.056785278 0.102913104 0.16521597 0.0013354924 0.11584748 -0.026236277
0.013070695 0.058188163 0.015401773 0.10358729 0.024638887 -0.027501512 0.08302815 0.079444535
0.13965827 -0.03235482 -0.0026749736 0.15536761 0.16357613 0.021791788 0.05105838 0.11363599
-0.08979408 -0.013363365 0.12150814 0.119173974 0.012923093 -0.03891719 0.020563025 -0.049619485
-0.01134922 0.037324052 0.041263197 0.14286278 0.112889625 0.1554398 0.03449945 0.09941305
0.15218289 0.022248764 0.072779156 0.08890678 -0.008013878 0.11169885 0.079130836 0.08872648
0.023882575 -0.00042765265 0.04899871 -0.0066847946 0.03170191 0.061223432 -0.043784406 0.111874245
-0.022728276 0.06442168 -0.017687846 0.1437895 0.04135202 0.023935616 0.03276878 0.112382926
0.12561606 -0.05863094 0.041724302 0.11931108 0.18141222 0.11498625 0.016465949 0.12747888
0.019655775 -0.017272025 0.13254073 0.10029589 -0.013611217 0.11849469 0.11765669 0.13572161
-0.02500201 0.115799144 -0.01530097 -0.02053969 0.05250951 -0.027220855 0.0056891777 0.024361378
0.14818789 0.0065802657 0.17324488 0.09150666 0.08056836 -0.07965104 0.00023161135 0.0137931015
-0.00026612452 0.02587653 0.12585492 -0.018337892 0.110209495 0.016854502 0.19314677 0.14593132
0.0765727 -0.010282911 0.060930368 -0.025921771 0.025003538 0.06860739 -0.009423269 0.15885925
0.058568053 0.046767626 0.09799233 0.08586646 0.10925108 0.052019544 0.08790823 0.094214305
0.12416474 0.00032168455 0.12156882 -0.025795076 0.04771969 0.01275402 0.047363564 0.12225111
00000000: 2094 3c3c c17f b13c c9bc 133d 782e 95bc
00000010: dcae 103d 7596 8a3d 9e1c 8f3d 06e7 233d
00000020: a5c4 a73c 4f94 02bc eb7b a7bc 4669 8f3c
00000030: 04b4 c2bc 3175 f0bc bdf4 dfbc dbdc 353d
00000040: 40c7 32bc e28d 003d 6f90 2e3a 398a 8f3d
00000050: 7be2 1e3e 372a 3a3d 5591 c23d cd30 8b3c
00000060: 6266 c1bd e28b 84bc 4043 163e 00cc d1bb
00000070: a648 993d 599b cfbc 52cc 663d 3e35 59bd
00000080: 482d 2ebd 208a 61bd 9c12 57bd c016 7fbc
00000090: 5825 653d 1ba7 493d 990c 413d de49 9e3d
000000a0: c8a5 21bd 489c 983c 62f6 bbbd 5080 b43d
000000b0: e7e2 bcbc 8e02 6f3d 00a3 943d 678a 20bd
000000c0: ddaa a83c b3c9 eb3c 985d a63c cec5 12bd
000000d0: 9dc3 56bd ec96 88bd a219 8b3d b3ab 033d
000000e0: 169c cc3d 28b4 d03d 1983 bebd 7ba5 c0bb
000000f0: 358d 363d f313 2d3d ab0e fe3c 6557 70bd
00000100: d5c3 2fbc d5a6 4c3d a16f 043c dd69 97bc
00000110: b89c 203e b664 343e 628c a03d f100 623d
00000120: 5c93 52bc 502e ff3c 9424 923d a12a ea3c
00000130: 7eb8 943a 4aa6 4e3d 9941 113e 9888 49bd
00000140: 27ca a1bd 8eab b2bc 9faf 3fbd 0f57 d63d
00000150: 0f80 683d ba62 753c 9b7b 923d 9f42 ee3c
00000160: 10a9 a73a b318 56ba 9b5e aa3d 1572 163d
00000170: 3afb 853d 4b5e 94bd de74 d73c a033 993c
00000180: 80c4 7cba a01d 5e3d a081 1a3e d9df 49bd
00000190: eaba 67bd fc47 fe3d 9086 ed3d 986a db3d
000001a0: 722b 063b 5f17 87bc 5048 253d d709 46bd
000001b0: 635a 863d 4e82 073c ee88 903d 4ffe a73d
000001c0: a274 053d 7e8d f6bc 948a 0e3d 7893 79bc
000001d0: 2f7c 9c3d 3c0c d13d d987 523d 888e bc3d
000001e0: fa98 3cbb 5b30 58bc f18f 2b3d 8e5c 813d
000001f0: 52bb f33d 155e 443c 8cd1 2b3e c922 373d
00000200: 3fac 963d bd32 d93d ae97 683d 1bc4 d23d
00000210: 602e 293e b00b af3a 7241 ed3d 76ed d6bc
00000220: 7826 563c b656 6e3d b857 7c3c 9325 d43d
00000230: 7ed7 c93c da4a e1bc aa0a aa3d d1b3 a23d
00000240: 9402 0f3e 7d86 04bd 9c4e 2fbb b018 1f3e
00000250: 8080 273e b184 b23c 9822 513d fcb9 e83d
00000260: f5e5 b7bd 04f2 5abc 42d9 f83d 7c11 f43d
00000270: 61bb 533c a267 1fbd ca73 a83c cd3d 4bbd
00000280: 14f2 39bc 1be1 183d 9903 293d 9f4a 123e
00000290: ad32 e73d 9c2b 1f3e 4c4f 0d3d 1299 cb3d
000002a0: d5d5 1b3e 0a43 b63c 3d0d 953d c214 b63d
000002b0: a44c 03bc 5ec2 e43d 590f a23d 3bb6 b53d
000002c0: 64a5 c33c 9136 e0b9 dfb2 483d 1f0c dbbb
000002d0: ddd9 013d 6cc5 7a3d 4757 33bd 531e e53d
000002e0: a630 babc 84ef 833d 1ae6 90bc 8e3d 133e
000002f0: bc60 293d a014 c43c 8e38 063d 0529 e63d
00000300: 7fa1 003e ff26 70bd 1ae7 2a3d 5e59 f43d
00000310: 20c4 393e e97d eb3d 99e3 863c d389 023e
00000320: 2605 a13c 107e 8dbc c2b8 073e ee67 cd3d
00000330: 9501 5fbc 58ad f23d fef5 f03d 9bfa 0a3e
00000340: 04d1 ccbc 1a28 ed3d ebb0 7abc da42 a8bc
00000350: 3614 573d 45fe debc 486c ba3b 8391 c73c
00000360: 91be 173e 459f d73b 1b67 313e d867 bb3d
00000370: 0601 a53d 1620 a3bd b3dc 7239 76fc 613c
00000380: a186 8bb9 04fb d33c 1de0 003e 5939 96bc
00000390: 84b5 e13d 7412 8a3c 44c8 453e 056f 153e
000003a0: 26d2 9c3d a879 28bc 1f92 793d e559 d4bc
000003b0: 38d4 cc3c 0882 8c3d 0e64 1abc 00ac 223e
000003c0: 0ee5 6f3d 698f 3f3d 34b0 c83d c1da af3d
000003d0: 08bf df3d 7212 553d 3b09 b43d 6ef3 c03d
000003e0: 154a fe3d c5a7 a839 13f9 f83d 3250 d3bc
000003f0: b975 433d 3df6 503c 4c00 423d ca5e fa3d

lstm.bias_hh_l0 f4 [512]
-0.006476081 -0.022005506 0.07435706 -0.018908897 0.047088448 0.0606073 -0.045947265 0.070423335
-0.058472764 0.0022354333 0.040984765 -0.005152047 0.070251115 -0.003764947 -0.021030396 0.038243987
0.069913924 0.04189518 0.051707115 0.04631031 0.012490728 0.09470931 -0.01728395 -0.021578725
-0.05116786 -0.04850125 0.09751119 -0.05264543 -0.007995278 -0.048695665 0.13607588 -0.08302526
0.11038588 -0.0007857069 0.06293395 0.0060685314 0.047823057 -0.019508297 6.052288e-05 0.0761385
0.08635394 -0.05024605 -0.032822795 -0.032214098 0.04496508 -0.04108479 -0.048356995 -0.030753367
-0.008641976 -0.02474772 0.026289575 0.027330883 -0.055586044 0.035278678 -0.052694548 -0.03917884
-0.038909677 -0.023088912 -0.03058285 0.105421044 0.0897028 -0.041421045 0.090380706 0.059598092
0.010351303 -0.029661402 -0.0758774 0.10445421 0.11387877 0.10370571 0.07655989 0.11814102
0.039783906 0.03522849 0.10345088 -0.020477807 0.06777011 0.07112939 0.12036076 -0.0020620443
-0.04277459 0.02674273 0.07410371 0.017439036 0.10219259 0.0073354193 -0.0017427414 0.08096606
0.09272394 0.031926524 0.1287687 -0.01359994 0.060899526 -0.07165743 0.14284639 0.1570437
0.0036275792 0.006701862 0.05920589 0.06786844 0.105615534 0.12165627 0.12693328 0.137195
-0.011742764 0.07009322 0.046074912 -0.04898924 0.027482904 0.031319987 0.038093053 0.08907985
0.06695804 0.038810045 -0.007898146 0.05958246 0.05781619 -0.03365036 -0.015444382 0.014526579
0.11901159 -0.012510171 -0.00065809325 -0.00934626 0.06471906 -0.022727016 0.09208172 0.03970458
0.088714525 0.12007408 0.10662858 0.05067548 0.11799474 0.081819184 0.12178334 0.13569915
-0.03955278 0.07898168 0.1109802 0.021070654 0.06984692 0.09551613 -0.044166476 0.11647702
0.16842979 0.016110606 -0.042959157 0.029547643 0.1641993 0.18372963 0.12235411 0.10823172
-0.049467605 -0.016208502 0.050424173 0.016695421 0.12556128 0.080744684 -0.033118665 -0.017193599
0.009029021 0.059424452 0.078080654 -0.005065469 0.14875573 0.15794861 0.007065478 0.09473278
0.04752351 -0.005373089 0.048929404 0.012363303 0.15149927 0.08939652 -0.03411513 0.057696596
-0.017150065 0.12645453 0.029812979 0.017445527 0.0064703356 -0.024616783 -0.06264734 0.09660516
-0.0029462508 0.060021296 0.06115196 0.076423734 0.11293856 0.043511935 0.10508397 0.015827887
0.070459664 0.051922854 -0.043397613 0.14255364 0.08310528 0.13801591 0.14722656 0.06985868
0.09073952 0.11279185 0.08652837 0.051184874 -0.020832203 0.10251211 0.11693844 0.08424891
-0.007429286 0.0237296 0.038257554 0.14273688 0.1042637 0.072728015 -0.0015464951 0.011753135
0.13742732 -0.033125263 0.17392321 0.08521092 0.10566735 -0.07384935 0.044967443 0.083645545
0.13390592 0.050638262 0.15113251 0.019731546 -0.024769928 0.07417861 0.047918506 0.12461602
0.07669161 0.09843701 0.0657883 0.06560916 -0.059210118 0.09899075 0.04681647 0.09429635
0.09205358 0.03876358 -0.02736869 0.014379594 0.030895397 0.12478969 0.0365702 0.086349055
0.065591946 -0.035719365 0.03758973 -0.019270085 0.0922047 0.018906372 0.05160044 -0.0020208654
00000000: 4e35 d4bb e444 b4bc 8448 983d d5e6 9abc
00000010: d1df 403d 5c3f 783d 3333 3cbd 1c3a 903d
00000020: 2381 6fbd 5980 123b a4df 273d 81d2 a8bb
00000030: d1df 8f3d 54bd 76bb f047 acbc baa5 1c3d
00000040: 082f 8f3d 489a 2b3d d7ca 533d e1af 3d3d
00000050: e9a5 4c3c f4f6 c13d 1297 8dbc dec5 b0bc
00000060: 6495 51bd 3fa9 46bd f2b3 c73d bca2 57bd
00000070: a0fe 02bc 1b75 47bd 7a57 0b3e 2609 aabd
00000080: fe11 e23d e6f7 4dba 84e3 803d 88da c63b
00000090: 1ce2 433d ddcf 9fbc f3d9 7d38 80ee 9b3d
000000a0: 56da b03d cdce 4dbd 3271 06bd eef2 03bd
000000b0: 4e2d 383d 8648 28bd fc11 46bd 7cee fbbc
000000c0: 1397 0dbc bbbb cabc 3c5d d73c 04e5 df3c
000000d0: 31ae 63bd 6080 103d 3dd6 57bd fe79 20bd
000000e0: c15f 1fbd f524 bdbc e388 fabc fde6 d73d
000000f0: 1ab6 b73d 1da9 29bd 8519 b93d 211d 743d
00000100: 8398 293c 78fc f2bc 9c65 9bbd 17ec d53d
00000110: 4639 e93d a963 d43d 6ecb 9c3d ebf3 f13d
00000120: 73f4 223d c04b 103d 0ede d33d 13c1 a7bc
00000130: 0ecb 8a3d 49ac 913d b47f f63d 5d23 07bb
00000140: 6934 2fbd 9213 db3c b0c3 973d 4fdc 8e3c
00000150: 594a d13d f55d f03b b36c e4ba 89d1 a53d
00000160: 0de6 bd3d 63c5 023d f1db 033e 48d2 5ebc
00000170: c871 793d 21c1 92bd 5346 123e 10d0 203e
00000180: aebc 6d3b 4b9b db3b e081 723d 9cfe 8a3d
00000190: f54c d83d ec26 f93d ccfa 013e d97c 0c3e
000001a0: b964 40bc 098d 8f3d 0cb9 3c3d f1a8 48bd
000001b0: d423 e13c 6349 003d 7607 1c3d 7f6f b63d
000001c0: 4c21 893d 48f7 1e3d 3a67 01bc bd0c 743d
000001d0: abd0 6c3d f6d4 09bd 6f0a 7dbc e300 6e3c
000001e0: 59bc f33d 76f7 4cbc e483 2cba 0e21 19bc
000001f0: 6d8b 843d 022e babc 5795 bc3d 45a1 223d
00000200: f6af b53d 66e9 f53d 1660 da3d 1891 4f3d
00000210: 3aa7 f13d d190 a73d 8b69 f93d b8f4 0a3e
00000220: 1902 22bd 26c1 a13d 9649 e33d 5d9c ac3c
00000230: e70b 8f3d f69d c33d e8e7 34bd 818b ee3d
00000240: dc78 2c3e 64fa 833c f1f5 2fbd e60d f23c
00000250: dc23 283e 9f23 3c3e cb94 fa3d 98a8 dd3d
00000260: 8b9e 4abd b1c7 84bc 9489 4e3d d6c4 883c
00000270: 2393 003e 785d a53d 70a7 07bd 97d9 8cbc
00000280: 75ee 133c 0e67 733d c0e8 9f3d 3cfc a5bb
00000290: 6c53 183e 48bd 213e 8685 e73b 4203 c23d
000002a0: 03a8 423d bd10 b0bb 336a 483d 748f 4a3c
000002b0: a022 1b3e 8615 b73d 4ebc 0bbd 4453 6c3d
000002c0: 4b7e 8cbc 4c7d 013e 593a f43c ece9 8e3c
000002d0: 1c05 d43b 23a9 c9bc 404d 80bd edd8 c53d
000002e0: e315 41bb e4d8 753d 7a7a 7a3d 0c84 9c3d
000002f0: 554c e73d 9239 323d 4436 d73d 7ca9 813c
00000300: 284d 903d 0fad 543d b2c1 31bd 95f9 113e
00000310: 1a33 aa3d 0b54 0d3e 8fc2 163e 1112 8f3d
00000320: a4d5 b93d 6aff e63d c935 b13d 3ba7 513d
00000330: 4ca8 aabc def1 d13d 6c7d ef3d b18a ac3d
00000340: 5e71 f3bb 9464 c23c f4b3 1c3d 9e29 123e
00000350: 3588 d53d 6df2 943d c4b3 caba 3990 403c
00000360: bfb9 0c3e 5bae 07bd ed18 323e 1083 ae3d
00000370: 2068 d83d 543e 97bd c82f 383d 5b4e ab3d
00000380: a21e 093e 116a 4f3d 7bc2 1a3e 0da4 a13c
00000390: 4eea cabc f5ea 973d 3246 443d af36 ff3d
000003a0: 7e10 9d3d 5899 c93d 04bc 863d 185e 863d
000003b0: 4f86 72bd aabb ca3d a0c2 3f3d 721e c13d
000003c0: 9686 bc3d 8fc6 1e3d 4e34 e0bc 6398 6b3c
000003d0: 5818 fd3c bd91 ff3d a2ca 153d c6d7 b03d
000003e0: 1255 863d 784e 12bd b0f7 193d 4cdc 9dbc
000003f0: d1d5 bc3d 89e1 9a3c fc5a 533d 7f70 04bb
