app/backend/model/base_model.pth (torch, 526779 bytes, 4 tensors)

lstm.weight_ih_l0 f4 [512, 126]
00000000: 07a9 93bd afea ab3d e3ab 62bd e974 81bd
00000010: 8208 ce37 f85a 753c 7b95 85bd ebd5 843d
00000020: f4f9 95bd 7257 ae3d 6d8e 9ebc 3db7 c8bb
00000030: c4ab 43bd 1977 b13d 9d5f 85bd 6da2 92bd
00000040: c7c6 2a3d 0d2a 923d 1ed3 953d 03e3 09bd
00000050: 03be df3c 0c68 adbd c257 863d 12c9 66bb
00000060: 4ff5 8c3d cf34 66bd 2462 6a3d a048 9abd
00000070: 5534 493d fb9f 42bc a7ee 9f3d 72d1 163b
00000080: 20ed 5fbd e6dc 583d be69 643d 3747 38bd
00000090: 332b 85bd 2e63 b1bd 0bb3 823d 8f37 913d
000000a0: 4126 d6bc 7248 933d 07be aebc 1016 9ebd
000000b0: 265d a23c 194f 00bd 65b7 393d d9db c1bc
000000c0: f08c b03b e0a1 71bd 2a19 123d e65d 9e3c
000000d0: a767 0a3d 4691 afbc ce07 ef3c 4411 14bd
000000e0: 9056 2bbd 86ef a63c e650 04bd 72b3 213a
000000f0: 7349 b13d e90f 743d 2e3e 743c 967d b33c
00000100: 916a 65bc 895b 073d 7df1 f23c 93a5 743d
00000110: cf14 88bc 7f38 753c 2cff 91bd 0d04 4fbd
00000120: 9eca ee3c e59a a43d 3995 e73c a249 a83d
00000130: f84d af3d a1bd 003d 3596 3f3c 7c86 783d
00000140: fa9f 06bd cbb1 a83c 6cb4 dbbb 35da 9f3d
00000150: 6a2c 873d ec83 673c 80d5 57bd ce23 aabd
00000160: fd6a b0bd bbb1 0abd ebda 67bd 2760 943d
00000170: e9cd adbd f5c7 b33d 46fe 04bd 51d8 51bd
00000180: cfe4 98bd d0af af3c 38f3 3a3d 977f 02bd
00000190: 3ac2 a03d 40e7 c53c 16b6 5abd 7326 7cbd
000001a0: 7b12 813d e299 a0bc cb05 9b3c 1255 cf3c
000001b0: be64 f8bc 253a 923c e7dd 49bd 49f1 123d
000001c0: 16dd b03c e8e3 ba3a 6084 08bd 3362 703d
000001d0: 0ef5 68bd f02c 86bd 0255 903d b6bb 293c
000001e0: afce afbc df13 66bb 5a7d 8c3c 0807 23bd
000001f0: 1800 663d f0fe 86bd cbb3 b13d f6ea b2bd
00000200: cd35 dc3c 3c8d 133d 5e94 123d 9388 9dbc
00000210: 8733 79bc 90a4 0a3d ab53 09bd f8ef cfbb
00000220: 372f 8ebd 6987 113d 9f2f 243d 7763 96bc
00000230: ad54 593d ee78 65bc de16 be3c d6db 43bd
00000240: d680 a5bd fed1 1fbc f32f f4bc 259a 71bd
00000250: 113d 8d3c 3152 97bd 12bf 29bc 6e18 6bbd
00000260: 6f86 a73d f6b5 9e3d 01e7 56bd 092f 3b3d
00000270: 54fe a33d 4bc7 913d 9ebc 183c 7481 a6bd
00000280: fde9 78bc d12e 833d 6cc6 373c ab30 7fbd
00000290: 414b ed3c aa72 b2bd c993 f03c 64f8 963d
000002a0: 062b 4e3c 425a 653d 52a7 f8bc 11ff a8bd
000002b0: 4c62 9abc b7e5 893d 9a7d a83b f731 5ebb
000002c0: ebea 813d 810c 8abd d184 f6bc 6023 16bd
000002d0: e950 a43d 5b0d 7b3d 76d2 033d 924d 68bd
000002e0: fac2 893d b357 a23d c8ed 473d c4f5 24bd
000002f0: 7005 2cbd 5226 43bd 4a14 8fbd 92ef 73bd
00000300: cecd a13c 0ae9 71bd f979 16bd f065 833d
00000310: 49f6 6d3d 67df c13c 0f3e a23d 05c0 38bd
00000320: be26 7b3d 6fd7 3e3d 0687 423d cc83 893c
00000330: 7c3a 623d b103 72bd 7ca3 1cbd cf7c 9b3a
00000340: f611 92bd 990e 113b 15b7 983d 5b2c 8c3d
00000350: 95e2 ac3d 6ae8 e43a cc00 15bd c60a f6bc
00000360: da79 1abd c544 8cbd f712 92bc 889d aabd
00000370: 1c8c 953c bb7b b0bd a1d4 92bd 19b6 75bd
00000380: ffb1 b4bd 9cd8 2c3d 0447 843d 205b c2bc
00000390: a986 0f3d 0695 a1bd 18c4 233d 1b4c b33d
000003a0: 7d4f e23c 3d7c 6a3b ab78 8f3d af53 413d
000003b0: 370a 823d 4717 1cbd 335d 62bd 8f1a 48bd
000003c0: 08ce 823d fdde d53c f6a5 3fbd 194f 04bd
000003d0: f08d 863d b0e9 ee3c 4e88 b2bd 22c6 ff3c
000003e0: 3fc6 80bd 88ae 463d 7006 d13c ee06 583d
000003f0: b19a 13bd 0943 ae3d 4ad5 62bc e295 ab3d
-0.07209974 0.08394372 -0.055339705 -0.06321127 2.4561075e-05 0.014975302 -0.06522652 0.06486114
-0.073230654 0.085127726 -0.019355023 -0.0061253593 -0.04777123 0.08665294 -0.065123774 -0.071598865
0.041693475 0.07136927 0.07315658 -0.03366376 0.027312284 -0.08467111 0.06559707 -0.0035215062
0.068827264 -0.056202706 0.0572225 -0.07533383 0.049122173 -0.011878963 0.07809191 0.0023013023
-0.0546695 0.05294504 0.055764906 -0.04498979 -0.0650238 -0.08661495 0.06381806 0.07090675
-0.026141288 0.07191552 -0.021330846 -0.07719052 0.019819807 -0.031325433 0.045340914 -0.023664402
0.005387895 -0.058992267 0.03566853 0.019331884 0.033790257 -0.021431576 0.029178526 -0.03614928
-0.0418306 0.020377886 -0.032303713 0.0006168402 0.086565875 0.059585486 0.014907403 0.02191047
-0.014002458 0.03304628 0.029656166 0.059728216 -0.016611485 0.014967083 -0.07128748 -0.050540973
0.02914935 0.08037356 0.028269397 0.08217169 0.08559793 0.031430844 0.011693527 0.06067513
-0.03286741 0.02059259 -0.0067048576 0.078052916 0.06600268 0.014130574 -0.052693844 -0.083076105
-0.086141564 -0.033860903 -0.05660526 0.07244902 -0.0848654 0.08778373 -0.032469057 -0.051231686
-0.07465517 0.021446139 0.045642108 -0.03185996 0.07849546 0.02415812 -0.053396307 -0.061560106
0.06302353 -0.019604627 0.01892366 0.02530912 -0.030321475 0.017849991 -0.04928389 0.03587464
0.021589797 0.0014258595 -0.033329368 0.0586874 -0.056874327 -0.0655154 0.07047464 0.010359695
-0.02146086 -0.003510706 0.017149616 -0.039801627 0.056152433 -0.06591594 0.08676871 -0.087362215
0.026881123 0.036023363 0.035786025 -0.019230163 -0.015210039 0.033848345 -0.033527058 -0.006345745
-0.06942599 0.035529528 0.040084478 -0.018357975 0.05305927 -0.014005883 0.023204263 -0.047817074
-0.08081214 -0.009754656 -0.02980802 -0.058984894 0.017241033 -0.07388724 -0.010360496 -0.057396345
0.08179938 0.0774955 -0.052466396 0.045699153 0.080074936 0.0711809 0.009322314 -0.0813016
-0.015192506 0.06405414 0.011216741 -0.062302273 0.028966548 -0.08713277 0.029367344 0.073715955
0.0125835 0.05599428 -0.030353222 -0.08251775 -0.0188457 0.06733268 0.005141926 -0.0033904293
0.06343635 -0.06740666 -0.030092629 -0.03665483 0.08023245 0.061292034 0.032183133 -0.0567146
0.06726642 0.079268835 0.04881075 -0.040273443 -0.041997373 -0.047643967 -0.06986292 -0.059554644
0.019751456 -0.059060134 -0.036737416 0.064159274 0.058096204 0.023666097 0.07921993 -0.045105
0.061316244 0.046592172 0.04749205 0.016786478 0.055231556 -0.05908555 -0.03824185 0.0011862757
-0.07132332 0.0022133945 0.07456795 0.06844398 0.084416546 0.0017464284 -0.036377713 -0.030034434
-0.037713863 -0.06849054 -0.017831309 -0.08330828 0.018255286 -0.0861735 -0.07169462 -0.059988115
-0.088230126 0.042198762 0.06458858 -0.023725092 0.03504053 -0.07889752 0.03998193 0.0875475
0.027625794 0.0035779618 0.070054375 0.047198948 0.063496046 -0.038108137 -0.055264663 -0.048853453
0.063869536 0.026107306 -0.046789132 -0.032301996 0.06570041 0.029164165 -0.08717404 0.031222407
-0.062878124 0.04850629 0.025515765 0.052740984 -0.036036197 0.0850888 -0.013844797 0.08378197

lstm.weight_hh_l0 f4 [512, 128]
00000000: 890b 8a3d 6e5b c73c 8ac5 ae3d 8c6d aabb
00000010: e7a8 e53c a3d0 aebd e1f9 23bd dbcf 8abd
00000020: 2f50 583b 99d4 3f3d 4288 a9bd 63da 90bd
00000030: fef4 7cbd fab5 8f3d 6aff 853d a1bb 6b3d
00000040: 8deb 18bb 37bb c03c 51b2 acbd 9942 663d
00000050: 0c90 05bd 233c 1e3d 1585 9dbd 2dc1 88bd
00000060: a494 aebc e841 a4bd 50c1 963d cf75 afbb
00000070: 7f03 5cbd ea44 19bc b7bd e1ba 4d9f c1bb
00000080: e858 a43d 1053 0bbd c70f 94bd cfbc 9f3d
00000090: b17c 7dbd 8655 4d3c dcfa 95bd be9b 84bd
000000a0: ab60 843c 3137 32bd 1e19 563d 3601 913d
000000b0: 5e44 403d 1008 95bd 1b48 8abc adf9 4e3d
000000c0: 2ad0 0dbd c7c7 72bd 2a39 4a3d cfe5 39bd
000000d0: 557e b0bd cf11 743d 57ac 6bbc 008d a43b
000000e0: 9491 00bd fcb7 6fbc 31f6 42bd 6e69 b43c
000000f0: b334 683b c327 9d3d 5d95 c0bc 1146 a53c
00000100: 8942 a03d 96bc 963c f064 8cbd 2282 043d
00000110: d5d2 023c e92c 97bd b219 68bd 3e28 b3bd
00000120: fd6a 253d 4c8f 873c f91c abbd 6653 0c3d
00000130: b4b7 ad3d 9386 a73d 76c9 a3bd 7425 b2bd
00000140: 6fc6 693d 8d07 a63d e13d 7fbd d4eb 9c3d
00000150: 515b 00bd f373 a03d 48bf 2bbd 61d3 033a
00000160: f99b 46bd 141a 99bd 250e 92bd 487d ae3d
00000170: fe65 08bb 74a2 163d 4db6 b33d 2973 99bd
00000180: 9da1 a03d ab18 55bd 7ff9 70bc 1a21 a7bd
00000190: 5922 09bc 100a 863d ca35 cdbb eb90 8ebc
000001a0: 7965 7ebd 51fc 113c ddfb 933c 58a7 a7bd
000001b0: 5b6c 95bd 9348 92bd 7b4e dc3a 599d cbbc
000001c0: ac85 533d 9483 99bc 28e3 333d fc08 1b3d
000001d0: 0385 d9ba 4778 933d a268 82bc 53b8 a33d
000001e0: 6904 2cbd d77e 3dbc 7113 a1bd 6955 a3bc
000001f0: c373 b3bd 9bac ef3c d126 883c 43da afbc
00000200: 9231 27bc 9be6 b3bd 0a2a 09bb d4ba 823d
00000210: 4307 b1bd 6df1 7ebc 25b1 a0bd e67b 463d
00000220: a402 373d 517a 313d 98f6 973d 3d12 443c
00000230: 9d5f 703b f9f6 043d b880 9dbd 8662 30bd
00000240: b24d e7bc 49f4 2abd 9a55 443d a5fb 783d
00000250: 0871 563c 7c7d 82bd a76e 69bd 6318 b33d
00000260: 8340 f6bb cf9b f8bc 8ec6 693d f251 aa3d
00000270: f20a 8fbd 4e4f 4a3d 2960 8b3d a170 a4bc
00000280: 03fa 60bd 72b0 b4bd 02ae 6d3b 6d17 7abd
00000290: 649c 44bc 2c40 523c 6685 db3b 62e8 af3c
000002a0: ee26 343d 318d 763c b1d2 29bd 5352 563d
000002b0: 7ed8 cd3c b5cf b4bd 1b31 36bd ec82 073c
000002c0: 2570 9abd 209d 8d3d 057a 6c3d ae73 783d
000002d0: a008 16bc 156b 9abd 3ba4 a1bd cfe0 c73b
000002e0: 0d8c 073d 4dec a7bd c75f 48bc 70a7 89bd
000002f0: ae96 1c3c 7520 9c3d 135a 973d b35f a7bd
00000300: d236 dbbc 6f15 39bd 0424 293d 8daf f6bc
00000310: 0e8b b1bc 9207 7a3d 1b1f 453d 328d 5cbc
00000320: e0f3 913c 09fd 823c cabf 9dbd c9b4 b4bd
00000330: 099b 863d 3342 183b 37e3 58bd 4539 b2bb
00000340: f331 853c ca47 e83a 8066 99bc c021 cd3c
00000350: c71c a63d dae7 a23c 4b57 403d bdeb b83c
00000360: 499f 5b3d acfe a73d ad87 353d 80af 12bd
00000370: 7f9a 86bd 806e 43bd d772 6bbc 1f23 8dbd
00000380: e81d 6a3d 9381 be3c 084f 653d ddc7 0c3c
00000390: 799a 433b 1e71 763d 81f5 893d 7d2a 183d
000003a0: 5cd1 82bd 6619 0d3c 4721 b13d 243b 8abd
000003b0: 2f31 f93c 68ec 763d 314f 83bd 4a3c 0b3d
000003c0: 5dcb 86bd b05c cc3c c867 2ebb 21b6 87bd
000003d0: ed9f b73b a1fa 043d 9e45 243d 331d 9cbd
000003e0: 29dd 65bc b4cd 85bd ef97 93bd 3184 cd3c
000003f0: 16df 1d3c 039f 4abc 15c8 0cbd 6a80 10bd
0.067404814 0.02433559 0.08533771 -0.0052010473 0.02803464 -0.08535888 -0.040033225 -0.067779265
0.0033006778 0.04683361 -0.08277942 -0.07072904 -0.06175708 0.07017131 0.06542857 0.057551984
-0.0023333759 0.023526771 -0.08432449 0.056215856 -0.032608077 0.03863157 -0.07691399 -0.0667747
-0.021311112 -0.08020383 0.0736109 -0.00535462 -0.05371427 -0.009354809 -0.0017222677 -0.0059088827
0.0802477 -0.03401476 -0.07229572 0.07799684 -0.061886493 0.012532597 -0.07323238 -0.06475018
0.016159376 -0.043509666 0.052270047 0.07080309 0.0469402 -0.072769284 -0.016880086 0.050531078
-0.03462235 -0.059272554 0.049370922 -0.04538518 -0.08617846 0.059587296 -0.014384351 0.0050216913
-0.031388834 -0.014631268 -0.047598068 0.022022929 0.0035431802 0.076735996 -0.023508722 0.020175012
0.078251906 0.018400472 -0.0685519 0.032350667 0.007984837 -0.07381613 -0.05666513 -0.0874791
0.040385235 0.016547821 -0.083551355 0.034259222 0.08482304 0.08179965 -0.0799741 -0.0869855
0.057074007 0.08106909 -0.06231487 0.07662168 -0.031337086 0.078346156 -0.041930467 0.00050287513
-0.04848859 -0.07475677 -0.07131604 0.08519989 -0.0020812745 0.03677602 0.087750055 -0.07492668
0.07843325 -0.05202548 -0.014707922 -0.081606105 -0.0083700055 0.06544888 -0.0062625157 -0.017403087
-0.06210849 0.008910255 0.018064434 -0.08186215 -0.07296058 -0.07142749 0.0016808057 -0.024855303
0.05164115 -0.0187395 0.043917805 0.037850365 -0.0016595427 0.072006755 -0.015919033 0.079941414
-0.041996393 -0.0115658855 -0.07865036 -0.019938188 -0.08762314 0.02925711 0.016620072 -0.02146638
-0.01020469 -0.08784219 -0.0020929598 0.06383291 -0.08643963 -0.01556049 -0.07846288 0.048458003
0.044680253 0.04332954 0.07420081 0.011967239 0.0036678084 0.032462094 -0.07690567 -0.04306271
-0.02823529 -0.041736875 0.0479332 0.060786862 0.013088472 -0.063715905 -0.056990292 0.08744886
-0.0075150146 -0.030347733 0.057074122 0.08316411 -0.069845095 0.049392037 0.068054505 -0.020073237
-0.05492593 -0.08822717 0.0036267047 -0.061057497 -0.012000177 0.012832683 0.006699252 0.021473113
0.04398244 0.015048311 -0.041460697 0.052324604 0.025127646 -0.088286795 -0.044480424 0.00827096
-0.07540921 0.06914735 0.057733554 0.060657196 -0.00915733 -0.075399555 -0.078926526 0.0060997973
0.033092547 -0.08199368 -0.012229866 -0.06721389 0.009557409 0.07623378 0.07390227 -0.0817255
-0.026759539 -0.045186456 0.041294113 -0.030113006 -0.021672752 0.061042376 0.048125368 -0.013461398
0.017816484 0.015989797 -0.077025965 -0.088235445 0.06572539 0.0023232817 -0.052951064 -0.005438956
0.01625917 0.001772159 -0.018725634 0.025040507 0.081109576 0.019885946 0.04695825 0.022573346
0.053618703 0.08202872 0.044318844 -0.0358119 -0.065724365 -0.047712803 -0.014370642 -0.068914644
0.057157427 0.023255145 0.055983573 0.008592573 0.0029846712 0.06016647 0.06736279 0.037149895
-0.063875884 0.0086120125 0.08648925 -0.067495614 0.03041896 0.06028405 -0.06411589 0.033993043
-0.06581757 0.02494654 -0.0026612151 -0.06626535 0.0056037814 0.03246558 0.040105455 -0.07622757
-0.0140297795 -0.065333754 -0.072067134 0.025087448 0.009635707 -0.012367013 -0.0343705 -0.035278715

lstm.bias_ih_l0 f4 [512]
00000000: 72c0 3dbd 54f5 5ebd 4a3e a93b 481f 083d
00000010: 79b8 233c e873 05bc 9e65 02bd 7862 8bbd
00000020: d2c5 14bd e479 983d 5873 773d fb3a b43d
00000030: c313 18bd 81a8 153d 14ef 9abd 3473 b739
00000040: 395c 82bd 13c0 973d a60c e63c 239c b13c
00000050: 1706 91bd 263d 1f3d 9694 27bd 1083 b4bc
00000060: b2d6 f83c 9590 41bc 6eb4 51bc 82f0 7cbc
00000070: a735 e33c 17f7 91bd 0d80 9d3d 372b 1b3d
00000080: 7522 9abc 6b75 75bd 3d68 0ebd 43c1 a6bd
00000090: 0516 e5b9 8d15 9f3c 95e8 9a3d 36a3 f4bc
000000a0: e806 a53d 4494 3cbd 6070 1e3d d9ea 9c3d
000000b0: 9ddc 913d b846 a53d c87c 9c3d b27c 9abd
000000c0: 9596 d43c 9316 7ebb 5025 863d ec83 19bd
000000d0: 5f71 873d 739b adbd ce69 2cbd a24c cebc
000000e0: 5516 083d 8765 99ba 939f 2abd 4e9e 37bd
000000f0: 33fe 473c 8bbb 4bbd 4a6b 123c 744d 65bd
00000100: 9088 88bd d809 9a3c a5de b4bd 5dc1 3d3d
00000110: fa73 933d 1e6d a7bd fe45 943d a576 a3bc
00000120: 06f3 a73d c4a3 7ebd 0e4a 803d 2000 41bd
00000130: 1d4b 343c f184 8e3d 8640 223d b01e dcbc
00000140: de19 63bd 6ea5 4cbd b0f8 e6bc 9296 a7bd
00000150: fa31 82bd 68bf a4bc be4e af3b 4b4b 33bd
00000160: 72c0 783c 4906 893c 6ece 2b3d d06d d43b
00000170: 68da 1cbd 93d1 60bd 8313 1c3c 0bfa a93d
00000180: a9dc e83c c5a7 893c a1c3 343c f152 e53c
00000190: 69a2 123d a769 27bd 15c3 59bd 978a 42bb
000001a0: 59b1 4fbd ed8a 613d d48f 0bbd 3517 06ba
000001b0: 6aff 89bd 6d0b 173d 0d94 963d 434c b23d
000001c0: d791 743c a83d e2bc 7e61 8fbc 0006 5bbd
000001d0: 26f2 9dbd 73f6 bdbc 8bea 4d3c 9135 97bc
000001e0: 6ad5 673c b39f 67bd 49d4 7d3d aa5a 76bd
000001f0: cdc8 a1bd b202 8b3d cc28 bc3c a92f 073c
00000200: 92bf 353d 11c0 df3c d05d 2f3d 7603 bf3c
00000210: 532a 96bd 18a7 adbb f62a 8c3d 681f 183d
00000220: 13a4 9abd 60bf 993c 04c8 67bd 4d67 803d
00000230: 1b2a 72bd c511 b0bc 1d39 453d 11f1 b7bb
00000240: 9d65 9c3d 56ff 84bd e469 93bd ba90 b73b
00000250: 0c02 e5bc 2027 7abd 26fb 5a3d 0066 13bd
00000260: 9ba7 37bd e145 683d eda2 debc 359c 023c
00000270: 6795 9fbd 4b69 80bd ce39 763d 4204 f53b
00000280: 89cb 74bd bb50 ea3c 07b7 16bd ab69 cabb
00000290: 0e56 94bd 2e79 903d 6dc2 9bbd 283c 8a3d
000002a0: 2f96 94bd de31 38bd ed18 f8bc a026 8b3b
000002b0: 00f8 9c3d 7a11 57bd 68b0 a73d 2d6a a73d
000002c0: c840 ac3d 3a6a e2bc 1d5f 6abd 303b b43d
000002d0: bba0 57bc f3fe 833d e962 3dbc ada0 98bd
000002e0: 4693 94bd d85b 2b3b fe6b 69bd 335a 57bd
000002f0: 4d40 853d cb75 91bd cb47 873c c830 90bd
00000300: 2d73 4f3d bc0c a33d c589 8b3d dc91 94bb
00000310: 9a42 f4bc 7573 b9bc 98d7 7a3d 8653 57bd
00000320: d0c3 e1bb 36dc 7ebd 44ac 25ba 6f5b 57bc
00000330: 00f9 7fbc 70c3 9e3c 699f 0fbd bf2d 9dbd
00000340: f26c 92bc 8324 01bd 4df3 723c 4084 ce3a
00000350: 4df8 c23c 33db 14bd fbf4 a23c 48ff 4dbd
00000360: ff20 a3bc 746b 03bd b8b6 fd3c 8482 d9bc
00000370: 1a27 a2bd b1f4 eebc 8499 d53c 10b6 92bd
00000380: 3687 b5bc 2fa0 a73d 8e38 793d ef4d 3a3d
00000390: fda7 93bd 428f 803d cf94 e63c c389 bc3c
000003a0: 2744 493d 826c 89bd 630d 68bd a58d c1bc
000003b0: 9502 be3a 19e1 f1bc 2015 6e3d ee84 433d
000003c0: c5c1 20bd 213c 973c b452 b23d 1118 583d
000003d0: 0a79 173d ed11 063d 3caa 9b3d f6af 87bd
000003e0: f41e 14bd d3bc 34bc b2ae 813d ad92 8e3d
000003f0: 5219 a83d 607c a53d 669f 353d 9818 6ebd
-0.04632611 -0.054433182 0.005164896 0.033232957 0.009992712 -0.00814531 -0.03183519 -0.06805891
-0.03632147 0.07445124 0.060412735 0.08800312 -0.03712822 0.03653765 -0.07565132 0.00034990313
-0.06365246 0.07409682 0.028082203 0.021680897 -0.0708124 0.038876675 -0.040913187 -0.022035152
0.030375812 -0.011814256 -0.012799365 -0.015438201 0.027735544 -0.07127207 0.076904394 0.03788301
-0.018815259 -0.05992643 -0.034767378 -0.081423305 -0.0004369469 0.019419456 0.07563893 -0.029862981
0.08057958 -0.046039835 0.038681388 0.07661981 0.07122157 0.08070129 0.07640988 -0.07543315
0.02595071 -0.003877078 0.065500855 -0.037479326 0.06613421 -0.08476915 -0.04209309 -0.025183026
0.033224422 -0.0011703231 -0.041656088 -0.044828705 0.012206602 -0.0497394 0.0089367125 -0.05598207
-0.06666672 0.018803522 -0.088315286 0.046326984 0.07199855 -0.08175109 0.072399125 -0.019954035
0.0820065 -0.062167898 0.06264125 -0.04711926 0.0110042365 0.0695895 0.039612316 -0.026870102
-0.05544459 -0.049962454 -0.028194755 -0.08183016 -0.063571885 -0.0201108 0.005349963 -0.043772977
0.015182601 0.01672663 0.041944914 0.006482817 -0.038294226 -0.054887366 0.009526136 0.08299645
0.028425531 0.016803632 0.01103297 0.027993651 0.035799418 -0.040872242 -0.05316456 -0.0029684657
-0.05070624 0.05506413 -0.034072712 -0.00051151525 -0.067381695 0.03687613 0.07352457 0.08705952
0.014927349 -0.02761729 -0.017502543 -0.05347252 -0.07712202 -0.023188805 0.012568126 -0.01845816
0.014150003 -0.056548785 0.06197003 -0.060145058 -0.07899628 0.067876235 0.022968672 0.008251109
0.04437215 0.027313264 0.042814076 0.02331708 -0.073322915 -0.00529946 0.06844132 0.037139326
-0.07550826 0.018768013 -0.056587234 0.06269703 -0.059122186 -0.021492848 0.04815017 -0.005613454
0.07636569 -0.06494014 -0.071979314 0.0056019695 -0.027955078 -0.06107247 0.05346217 -0.035985947
-0.044837575 0.056707267 -0.027177298 0.007971813 -0.07792168 -0.06270083 0.06011372 0.007477314
-0.05976442 0.028602948 -0.036795642 -0.0061771474 -0.07242976 0.07054363 -0.07605443 0.06749755
-0.07255208 -0.044969432 -0.030285323 0.004246548 0.0766449 -0.0525069 0.08187944 0.08174548
0.084107935 -0.027638543 -0.057219613 0.088003516 -0.01316088 0.06445112 -0.011559227 -0.074525215
-0.07254653 0.0026147272 -0.056987755 -0.052576255 0.06506405 -0.07102545 0.016513726 -0.07040554
0.05064695 0.07961413 0.06813387 -0.0045339894 -0.029816914 -0.022638062 0.061240762 -0.05256989
-0.0068897977 -0.06222173 -0.000631992 -0.013144358 -0.015623331 0.019380301 -0.035064135 -0.07674741
-0.017874215 -0.03152896 0.014828515 0.0015755966 0.02380004 -0.036341857 0.019892206 -0.050292283
-0.019913195 -0.032084897 0.030970916 -0.026551493 -0.07917614 -0.029169412 0.026074179 -0.07163632
-0.0221592 0.081848495 0.06084495 0.04548448 -0.072097756 0.06277324 0.02814713 0.023014909
0.04913726 -0.06710149 -0.05665339 -0.023627112 0.0014496619 -0.02952628 0.058125615 0.047734194
-0.039247293 0.018461289 0.087071806 0.052757327 0.036980666 0.03273194 0.07600829 -0.06625359
-0.03616233 -0.011031347 0.063321486 0.0696157 0.082079545 0.08080363 0.044341467 -0.058128923

lstm.bias_hh_l0 f4 [512]
00000000: 1c03 a2bd f108 7a3d 42fe 9c3d 627c 8fbd
00000010: 1854 283d ab0f 97ba bd15 10bd e3ef a43d
00000020: 4249 bcbc 4ab5 98bd 1330 28bd ba95 1a3d
00000030: a80a cdba a17b a5bc a4c7 843c fbc5 783d
00000040: eda0 2ebc 154a 43bd e96a 6fbd f717 9ebb
00000050: 732e 673d deef 813d 5b6e 263d d451 02bc
00000060: d87d 833d 4920 973c 6e64 6cbd 23b4 fcbb
00000070: 9180 8abc 8300 673d f727 11bc 97b4 72bb
00000080: 832c 85bd 6a56 52bd 8e4e 763d 807b 243c
00000090: c83f eabc 7c82 4e3d 2ffa 8f3c 301d ec3c
000000a0: b89a a6bd c9a8 9bbd 3cc3 a73d 3165 b33c
000000b0: 8e87 a7bd b9e8 183c 41d4 9d3d 968a 1dbd
000000c0: 5d2b 483c 17e3 2b3d 4bfa 1abd 4893 2c3d
000000d0: 487f a6bd 23ea 18bd 9c97 153d ac0c c43a
000000e0: cae5 82bd 3a22 53bd 910b b1bd 18fe a43c
000000f0: 1906 57bc fd6e 0abd 71c9 f33c 2434 00bc
00000100: b7ba 903d e31c a03d fc93 5dbd 8ab7 ac3c
00000110: 2de6 7cbd 3c28 f53b c154 8dbc 5ad8 70bc
00000120: 6046 3cbd 4b16 b0bd 4704 63bd b5a0 93bd
00000130: 25a2 ac3d ffa5 3dbd 46ca 7fbd dda1 953d
00000140: f35d bf3c d742 683b c30c 283d 4dff 84bd
00000150: 6f48 4cbd daac a73c 6da0 a4bc 42d4 8fbd
00000160: 41bd 8bbd e6d5 553d 3e44 913d f206 6abc
00000170: 1152 ac3d 0320 af3d 4fbf 86bd 428c 7f3d
00000180: b2cb 8e3c ac3a 023d 4837 733d 88e9 4abd
00000190: 4a14 58bd 3a10 923c 6614 9b3c e09a 03bd
000001a0: fb74 b33d 7542 a1bd efb0 1bbd dea6 373c
000001b0: e101 a43a f888 523d 5cd2 013d 9de5 9ebd
000001c0: e7f4 483d a93d 443d 42f4 c63c 8345 473a
000001d0: 90d6 883d d9d1 9a3d 2448 a53d 068e 0abd
000001e0: dde5 3ebd d432 a0bd ef87 58bd f29b 4fbd
000001f0: 692c 293d 22f0 82bb 058f 903d 01c0 9a3d
00000200: a686 b03d d653 9c3d 80a7 a0bd b6f7 bd3b
00000210: f0a6 6f3d 8157 573c ae89 bf3c 77fe a1bc
00000220: fca9 91ba a46c e53b f617 903d 41bd 52bd
00000230: 511f 8fbd c3b1 9bbd 934f 9a3d b4de 81bc
00000240: 2288 303d 560f 74bd 5b8a 62bd 0e60 ae3d
00000250: 091c aebb 0fc5 57bc bee6 9cbd 89de 9f3d
00000260: 6d4a aebd 7d5b abba b9e2 81bd 8953 77bc
00000270: fb54 a53d fc0a 083d 0f4f 95bd 3330 5a3d
00000280: 1ded e5bc c1db ab3d c691 8b3d 9fe1 b339
00000290: e488 333d f579 453d cabe 9fbc 8237 35bc
000002a0: acf1 683b 226d 68bc 3bcc 29bd e44e 98bd
000002b0: fbed 9f3d b974 a1bd 3a65 503d 96bb ab3d
000002c0: 9d72 803d c709 6e3d 67cd b23d eaac b2bd
000002d0: d5e7 803c 8469 783d 396c 893d 83c0 823c
000002e0: 9e2d 963c dc8c ac3d 3260 21bd d383 90bc
000002f0: e395 92bd f5c4 4dbd bdee 4ebd 611c 38bb
00000300: 98d1 fcbc 9b5e 573d dfab 3b3d 0103 b23d
00000310: a4df a4bd 2003 8b3d 49c9 80bd b8a0 75bd
00000320: 2a62 3cbd 3dbd 873c 273d 893d b34b a9bc
00000330: ed46 47bb bc5e 86bd 0753 48bd 88a3 7abd
00000340: 988f 813d 487a 94bd c4b6 0fbc 4a05 873d
00000350: 786b a8bd 9d4e aa3d 0769 78bd 4be6 b2bd
00000360: 45ca 813d f6c8 f63c 6477 5f3d 1c88 febc
00000370: d090 9ebd 58ed 593d 128e c43b 1e3c 563d
00000380: 4c21 64bd 9a32 70bd 2976 f7bc 50e8 0a3d
00000390: 1298 e83c 9762 04bd fcdb 1c3d 8781 cbbc
000003a0: 567d a13d 5c4c 08bb 91d0 e93c 8e3a dbbc
000003b0: fd2a ddbc f72e b03d 30a6 94bb a1f7 353d
000003c0: bfd7 6bbd 8914 ab3c 54ff 833c 30d2 8a3d
000003d0: 83d5 89bc fe81 82bd 5130 99bc 0b3a e0bb
000003e0: 774e 55bd 8ba0 59bc ecb3 d1bc b1bd c8bb
000003f0: 0784 9c3d 4401 27bc c226 9c3d fb30 2a3d
-0.07910749 0.061043683 0.07665683 -0.07006146 0.041095823 -0.0011525055 -0.03517698 0.08053567
-0.02298415 -0.07456453 -0.041061472 0.037740447 -0.0015643435 -0.020200552 0.016208477 0.060735684
-0.010658485 -0.047678072 -0.058451567 -0.004824634 0.05644078 0.06344579 0.040632587 -0.00795408
0.06420487 0.018448012 -0.057712965 -0.0077119037 -0.016907008 0.056396972 -0.008859626 -0.003703391
-0.065026306 -0.051351942 0.06013351 0.01003921 -0.028594866 0.05041741 0.017575352 0.028822511
-0.08134979 -0.076005526 0.08191535 0.021898838 -0.08180152 0.009332829 0.077065 -0.038462244
0.01221737 0.041964617 -0.037836354 0.042132646 -0.08129746 -0.037332665 0.03652154 0.001495739
-0.06391485 -0.051546313 -0.08644784 0.020140693 -0.013124012 -0.033797253 0.02975914 -0.007824931
0.07066863 0.0781801 -0.054096207 0.021083612 -0.06174295 0.007481603 -0.017252328 -0.01470002
-0.045965552 -0.08598002 -0.055424 -0.07208387 0.08429364 -0.046300884 -0.062448762 0.073062636
0.023360228 0.003544023 0.041027796 -0.06494007 -0.049873766 0.020468164 -0.020096028 -0.07022907
-0.06823207 0.052205943 0.07093094 -0.014283882 0.084140904 0.085510276 -0.06579458 0.06238962
0.017431114 0.031794235 0.059378892 -0.04953912 -0.052753724 0.017830003 0.018930625 -0.032130122
0.08762547 -0.07874004 -0.038010534 0.011209218 0.0012512767 0.051400155 0.031694755 -0.07758639
0.049061682 0.047910366 0.024286393 0.00076016056 0.066815495 0.075595565 0.080704 -0.03382685
-0.046605933 -0.07822195 -0.05286401 -0.05068583 0.04130212 -0.003995911 0.07058529 0.07556153
0.08619432 0.07633178 -0.07844448 0.0057973517 0.058508813 0.013143421 0.02338108 -0.019774659
-0.0011113281 0.0070014764 0.0703582 -0.051450018 -0.06988395 -0.07602265 0.07534709 -0.015853263
0.043098576 -0.059584938 -0.055307727 0.08514415 -0.0053134006 -0.013169541 -0.07661198 0.07806117
-0.08510289 -0.001307353 -0.06342072 -0.0150956 0.08072849 0.0332136 -0.0729047 0.053268623
-0.028067166 0.08391524 0.068149135 0.0003430964 0.04383172 0.04821201 -0.019500155 -0.011060597
0.0035544438 -0.014186176 -0.041454535 -0.07436922 0.07809063 -0.07883591 0.050877787 0.083853886
0.06271861 0.058114793 0.08730584 -0.08724387 0.015735546 0.060647503 0.06710095 0.015960937
0.018332299 0.08425304 -0.03939838 -0.017640984 -0.07157495 -0.05023666 -0.050520647 -0.0028093087
-0.03086166 0.052580457 0.045818206 0.08691979 -0.080504686 0.067877054 -0.06288392 -0.059967726
-0.045992054 0.016569728 0.06701117 -0.020665979 -0.0030407265 -0.06561038 -0.048907306 -0.06119111
0.063262165 -0.07249886 -0.008771602 0.06592806 -0.08223623 0.083157755 -0.060647037 -0.08735331
0.06337408 0.030125123 0.05455722 -0.031070761 -0.077424645 0.053204864 0.0059983814 0.052303426
-0.055695817 -0.058642007 -0.03020771 0.033912957 0.028392825 -0.032320585 0.03829573 -0.024842037
0.07885234 -0.0020797467 0.028541835 -0.02676132 -0.026998037 0.08602708 -0.0045364127 0.04442561
-0.0575788 0.020883815 0.01611296 0.06778371 -0.016825443 -0.0637245 -0.018699797 -0.0068428568
-0.052076783 -0.013282905 -0.025598489 -0.0061261286 0.0764237 -0.010193173 0.0762458 0.041550618
