app/backend/model/incremental_head.pth (torch, 2541 bytes, 1 tensors)

fc.weight f4 [1, 128]
0	0x3cf83640	0.030299306
1	0xbd87d8a3	-0.06633117
2	0x3d6a1efa	0.057158448
3	0xbd9c252d	-0.07624278
4	0x3d38bbc7	0.045100953
5	0x3cd4e606	0.02598859
6	0xbd95ba3c	-0.07310912
7	0xbce6865c	-0.02814024
8	0xbd057840	-0.032585382
9	0xbcf93b43	-0.030423766
10	0xbc04ddde	-0.008109538
11	0xbd80f5ff	-0.0629692
12	0xbbc1c5d7	-0.005913477
13	0xbd07940c	-0.033100173
14	0x3cc2aad4	0.023763098
15	0x3da05df8	0.07830423
16	0x3d755f0e	0.059905104
17	0xbcb74280	-0.022370577
18	0xbd4cc937	-0.04999658
19	0xbca1287f	-0.01967263
20	0xbd34fa63	-0.0441841
21	0xbcf329e1	-0.029683055
22	0x3d5cbe87	0.05389264
23	0x3cfd8314	0.030946292
24	0xbc210ebc	-0.009830173
25	0xbd9759db	-0.073901854
26	0xbda690c8	-0.081330836
27	0x3d180f69	0.03712407
28	0xbb8f04aa	-0.0043645697
29	0x3ba3d0d3	0.004999259
30	0x3d7c3985	0.061578292
31	0x3d7e32f3	0.062060308
32	0xbdb2d176	-0.08731358
33	0xbd84663e	-0.06464814
34	0x3ca58e85	0.02020956
35	0x3d869b5a	0.065726
36	0xbd5ad620	-0.05342686
37	0x3dabec0f	0.08394634
38	0x3d785da3	0.060636174
39	0xbd5e733e	-0.054309122
40	0x3d969f29	0.07354576
41	0xbd388636	-0.04504987
42	0x3d6aa83c	0.057289347
43	0x3d9fc5e4	0.078014165
44	0xbd1b1743	-0.03786398
45	0x3db39971	0.08769501
46	0x3d095f31	0.033538047
47	0xbd620859	-0.055183742
48	0xbd11d0f9	-0.035599682
49	0xbcffe0e4	-0.031235166
50	0xbd8f69f7	-0.07002633
51	0x3d545568	0.051839262
52	0xbce8975d	-0.028392488
53	0x3d6ca9d3	0.057779144
54	0xbd5f470b	-0.05451111
55	0xbda8556e	-0.082194194
56	0x3ccdec56	0.025137108
57	0xbd4b83d3	-0.049686264
58	0xbda133a4	-0.07871178
59	0xbd5e5b03	-0.054286014
60	0xbcf55f03	-0.029952532
61	0x3db228de	0.08699201
62	0xbd434054	-0.04766877
63	0xbd727d34	-0.059201434
64	0x3d93b62b	0.0721248
65	0x3d8b84fc	0.06812474
66	0x3c86b70e	0.01644471
67	0x3d23609a	0.03988705
68	0xbd83e56a	-0.06440242
69	0xbdb13375	-0.08652393
70	0xbd870b8e	-0.06594001
71	0x3d3ac980	0.04560232
72	0x3d1f5aef	0.03890508
73	0x3d321250	0.043474495
74	0xbc216a20	-0.009851962
75	0xbd14d9c9	-0.03634051
76	0x3c7062f9	0.014672034
77	0x3d8f8143	0.070070766
78	0x3d8f8f03	0.07009699
79	0xbcbdaa92	-0.023152623
80	0xbcb60996	-0.022221368
81	0x3c9cc84f	0.019138483
82	0xbd76533e	-0.06013798
83	0x3cd0c5bd	0.025484914
84	0xbc114a09	-0.008867749
85	0xbc97cb90	-0.018529683
86	0x3c178069	0.009246924
87	0xbda52e46	-0.080654666
88	0xbcefbff1	-0.02926633
89	0xbc597a3a	-0.01327377
90	0x3d9efa4c	0.07762584
91	0xbd93408d	-0.071900465
92	0xbd50b2a2	-0.050951608
93	0x3cb97be0	0.022642076
94	0xbd11466a	-0.035467543
95	0x3ad31d96	0.001610684
96	0x3d81be46	0.0633512
97	0x3d11a0ca	0.03555373
98	0xbd2ea2cb	-0.04263572
99	0xbc6202ca	-0.01379461
100	0x3b970e41	0.0046098535
101	0xbda5e0cb	-0.080995165
102	0xbbab9387	-0.0052360925
103	0x3d4c011e	0.049805753
104	0x3ca41e13	0.020033872
105	0xbd0f3fa9	-0.03497282
106	0x3d5e3780	0.054252148
107	0x3d2c9879	0.042137597
108	0x3d5d3429	0.054004822
109	0xbd9b121d	-0.07571814
110	0xbdb4101c	-0.08792135
111	0x3d9f9925	0.07792882
112	0x3da8a31a	0.08234234
113	0xbda2b0bb	-0.07943865
114	0xbcda14b0	-0.026621193
115	0xbd9a796a	-0.07542689
116	0x3ca9a71e	0.02070957
117	0x3d00a300	0.03140545
118	0xbb5954c0	-0.0033162087
119	0xbd729cde	-0.05923163
120	0x3c1ceecd	0.009578419
121	0xbd885970	-0.06657684
122	0x3d52eb0f	0.0514937
123	0x3c83238d	0.016008163
124	0x3cce0033	0.02514658
125	0xbca9bfee	-0.020721402
126	0x3da25224	0.07925823
127	0x3d939e4d	0.07207928
